Model/model.pth (torch_old, 428349 bytes, 14 tensors)

layer1.0.weight f4 [64, 1, 9]
0	0xbefe490c	-0.49665105
1	0x3e1c8db1	0.15288426
2	0xbec68ead	-0.38780728
3	0xbc8f8a8c	-0.017522119
4	0xbd010dac	-0.03150718
5	0x3d8df92c	0.069322914
6	0x3b35a806	0.0027718558
7	0x3e969e68	0.2941773
8	0x3da97f5b	0.08276244
9	0xbee7b0aa	-0.4525197
10	0xbe4f6aa7	-0.20255528
11	0x3df836f0	0.121198535
12	0x3e94e2eb	0.29079375
13	0x3d8ca4f1	0.068673976
14	0x3d9e21bd	0.07721279
15	0xbe0aa733	-0.13540344
16	0x3e1d0b0e	0.15336248
17	0xbe9e5e9c	-0.30931556
18	0x3e508dc9	0.20366587
19	0xbe251356	-0.16120657
20	0xbe0cf60d	-0.13765736
21	0x3ea7a64c	0.32744062
22	0xbe738fdf	-0.23785351
23	0xbda0c032	-0.07849158
24	0x3e97195e	0.2951154
25	0xbe177695	-0.14791329
26	0xbd320a88	-0.043467075
27	0x3e019abe	0.12656686
28	0x3df01a14	0.11723724
29	0xbe9b9be1	-0.30392364
30	0x3dfb81b2	0.12280597
31	0xbb9ab97e	-0.0047218194
32	0x3db1680b	0.08662423
33	0xbdc2a3c0	-0.09503889
34	0xbe6f9e89	-0.2340032
35	0x3ec22765	0.3792068
36	0xbe42a331	-0.19007565
37	0xbe35dfda	-0.17761174
38	0x3e966906	0.29377002
39	0xbe2e837d	-0.17042346
40	0x3d94eca8	0.07271701
41	0xbde60033	-0.11230507
42	0x3df46b30	0.11934507
43	0x3e85aacc	0.2610687
44	0xbed7a74d	-0.42119828
45	0x3d00a3b9	0.031406138
46	0xbd6e3d4c	-0.058163926
47	0x3e2bf895	0.16794045
48	0xbe2d3377	-0.16914164
49	0x3eaaa6d7	0.33330414
50	0xbe86f86b	-0.26361403
51	0x3e892c87	0.26791784
52	0xbe15a0c9	-0.14612116
53	0x3e12b09d	0.14325185
54	0xbe871c4c	-0.26388776
55	0x3e756fc8	0.23968422
56	0x3de8dcf9	0.11370272
57	0xbe2d7e51	-0.16942717
58	0xbe2969d1	-0.16544272
59	0x3e54a104	0.20764548
60	0x3e34938b	0.17634408
61	0xbe9b2b53	-0.3030649
62	0x3da4ace5	0.080407895
63	0xbdac75c2	-0.08420898
64	0x3e85b986	0.26118106
65	0xbea7ab0e	-0.32747692
66	0x3e287c0d	0.16453572
67	0x3ce2c5d4	0.027682222
68	0xbe30d814	-0.17269927
69	0x3e4e88b2	0.20169333
70	0xbe23f355	-0.16010793
71	0xbda3c992	-0.07997431
72	0x3e31ed0c	0.17375582
73	0xbe8960ea	-0.26831752
74	0x3e508860	0.20364523
75	0xbe0e733d	-0.13911147
76	0x3d38c8b5	0.045113284
77	0x3e018ed6	0.12652144
78	0xbe85eab0	-0.26155615
79	0x3ea5ae83	0.32359704
80	0xbe396e0e	-0.18108389
81	0x3ea2136b	0.3165544
82	0x3e4c8459	0.19972362
83	0x3d4b6417	0.049656
84	0x3cf5e634	0.030016996
85	0xbed07da4	-0.40720856
86	0xbcf625f2	-0.03004739
87	0xbdda9767	-0.10673409
88	0x3e0b7edd	0.13622613
89	0x3ec86c13	0.39144954
90	0xbebfdb9c	-0.37472236
91	0xbdec49d7	-0.11537521
92	0x3e083ee0	0.13305235
93	0x3e3e79d5	0.18601163
94	0x3e65c085	0.22436722
95	0xbe3ced94	-0.18450004
96	0xbed5bbe5	-0.41744915
97	0xbeb73c51	-0.35788205
98	0xbed5a2f9	-0.417259
99	0x3eabb341	0.33535197
100	0xbe94617c	-0.28980625
101	0xbe038b53	-0.12846117
102	0x3dada3a3	0.08478477
103	0xbe35df6c	-0.1776101
104	0xbd8ac878	-0.06776518
105	0x3db3383a	0.08750959
106	0x3e2967f3	0.1654356
107	0xbebdeea1	-0.37096122
108	0x3e293ea6	0.16527805
109	0xbea903f4	-0.33010828
110	0xbdf64dae	-0.12026535
111	0x3dc61e68	0.09673768
112	0x3ce966fd	0.028491491
113	0x3d9fbaa1	0.077992685
114	0x3db06928	0.08613807
115	0x3e5bef69	0.21478046
116	0xbef7e528	-0.4841702
117	0x3e7fe5a7	0.24989949
118	0x3db1a67b	0.08674332
119	0xbe6d5d1e	-0.23180053
120	0xbe75a97e	-0.23990437
121	0xbd2199c3	-0.03945328
122	0x3e6878e3	0.22702365
123	0x3e939575	0.28824964
124	0x3e0793ca	0.13239971
125	0xbe9e9fc8	-0.30981278
126	0xbdf43bc1	-0.1192546
127	0x3dea6079	0.11444182
128	0x3e805c59	0.25070456
129	0x3ea11286	0.31459445
130	0x3c399157	0.011326156
131	0xbe9b6aa9	-0.30354813
132	0xbe613d1e	-0.2199597
133	0xbe091642	-0.13387397
134	0x3e4bbf97	0.19897304
135	0x3e78f82c	0.2431342
136	0x3e2e54a7	0.1702448
137	0x3df6c113	0.12048545
138	0x3e9ee974	0.31037486
139	0x365faf40	3.3331598e-06
140	0x3e233284	0.15937239
141	0x3dab783b	0.083725415
142	0x3e1ccd57	0.15312706
143	0x3cc20247	0.023682727
144	0xbd9fc2a4	-0.07800797
145	0x3e2d0a3b	0.16898434
146	0x3d9cdd40	0.076593876
147	0x3e3b6560	0.1830039
148	0x3e8f21b4	0.279554
149	0x3e1cfae9	0.1533009
150	0x3eb5296b	0.35383162
151	0x3e06f1d6	0.1317819
152	0x3e436fd9	0.19085635
153	0x3e574319	0.2102169
154	0x3e9effeb	0.31054625
155	0x3ea1c3db	0.31594738
156	0x3e7ef64c	0.24898642
157	0xbdb905c6	-0.09034304
158	0x3dc7682e	0.097366676
159	0x3da24408	0.07923132
160	0x3e863b22	0.2621699
161	0x3e8e7557	0.27823898
162	0xbea74d2e	-0.3267607
163	0xbdf482b0	-0.11938989
164	0xbd900957	-0.070330314
165	0x3d023e24	0.031797543
166	0x3e90e6ba	0.2830103
167	0x3d584144	0.052796617
168	0xbd22d629	-0.03975502
169	0xbdd5adfe	-0.10433577
170	0xbecc328f	-0.39882323
171	0x3e843425	0.25821033
172	0xbad07d77	-0.0015906532
173	0xbce03a25	-0.027371475
174	0xbea1ca65	-0.31599727
175	0x3e166b4b	0.14689367
176	0x3e928e5c	0.28624237
177	0x3eb9e6f2	0.3630901
178	0x3e161ee3	0.1466022
179	0xbe89d744	-0.26922047
180	0x3e47e468	0.19520724
181	0xbeaf979f	-0.34295365
182	0x3e821b3b	0.254114
183	0xbdb2760b	-0.08713921
184	0xbc119dce	-0.008887721
185	0x3de10086	0.10986428
186	0xbe9f1bc6	-0.31075877
187	0x3ee229ff	0.44172665
188	0xbe85b37e	-0.26113504
189	0x3e3ba05a	0.18322888
190	0x3e9fa034	0.31176913
191	0xbe24128d	-0.16022702
192	0x3e8c35b2	0.27384716
193	0xbeac48ec	-0.33649385
194	0x3e34e2d2	0.1766465
195	0xbe84bcb7	-0.25925228
196	0xbd39d18d	-0.04536586
197	0x3e8abf91	0.2709928
198	0xbe3bb45d	-0.18330522
199	0x3dcd91c9	0.10037572
200	0xbe23cf3b	-0.15997021
201	0xbd1e1194	-0.038590983
202	0x3d953d5d	0.07287095
203	0xbe8f9a00	-0.2804718
204	0x3e85a506	0.26102465
205	0xbe8985bd	-0.26859847
206	0x3e1d47cb	0.15359418
207	0xbdd4511f	-0.10367035
208	0xbe12992e	-0.14316246
209	0x3eb0e7e3	0.34551916
210	0xbe4f5cdd	-0.20250268
211	0xbdf58648	-0.11988503
212	0x3eb06608	0.34452844
213	0xbe794917	-0.24344288
214	0xbe233ac7	-0.1594039
215	0x3e751596	0.23934016
216	0xbe8f2d35	-0.27964178
217	0xbcd1aaee	-0.025594201
218	0xbe52fac0	-0.20603466
219	0xbe5be38d	-0.21473522
220	0xbe73037d	-0.237318
221	0x3e494572	0.19655398
222	0x3e761373	0.24030857
223	0xbecf512b	-0.40491614
224	0x3db09f12	0.0862409
225	0xbe8a0846	-0.26959437
226	0x3dcfae7e	0.101407036
227	0x3d45f706	0.048331283
228	0xbe6a27cd	-0.22866745
229	0x3e365046	0.1780406
230	0x3c7789b4	0.015108515
231	0xbe86b309	-0.26308468
232	0x3ea5fc2e	0.3241896
233	0xbeab2d57	-0.3343303
234	0x3e240745	0.16018398
235	0xbc3de7a9	-0.011590877
236	0x3e86e14d	0.26343766
237	0xbe4781f8	-0.19483173
238	0x3c0941f4	0.008377541
239	0xbec4e9a9	-0.3845952
240	0xbe8c508e	-0.27405208
241	0xbe6ce97a	-0.23135939
242	0xbe2f7974	-0.17136174
243	0x3e784432	0.24244764
244	0x3e12c9c9	0.14334787
245	0xbe0196f3	-0.12655239
246	0x3e0c13db	0.1367945
247	0xbdaf6836	-0.085647985
248	0xbd52a119	-0.051423166
249	0xbcc99852	-0.024608765
250	0xbd1711cb	-0.036882203
251	0xbed3b278	-0.41347098
252	0x3e706f9a	0.23480073
253	0xbe51838f	-0.20460342
254	0x3e134f52	0.14385727
255	0x3dc1a777	0.094557695

layer1.0.bias f4 [64]
0	0xbabfcb58	-0.0014632745
1	0x398767d8	0.00025826576
2	0xb9e7d085	-0.00044215113
3	0x3a9a33a4	0.0011764658
4	0xbb5ffc02	-0.0034177308
5	0x3bb7ec04	0.005612852
6	0x3b3490e1	0.0027552175
7	0x3acc1476	0.0015570063
8	0xba233e7d	-0.0006227268
9	0xba8305db	-0.0009996252
10	0xbb0cc23a	-0.0021478073
11	0x3a3904a6	0.00070578826
12	0x3aea5610	0.0017878432
13	0x380a0d26	3.291401e-05
14	0x391be9c4	0.00014869036
15	0xbb1e761d	-0.0024179288
16	0xb9819ef3	-0.00024723224
17	0xbab982ae	-0.0014153325
18	0xbbec83ba	-0.0072178515
19	0x3b49a64d	0.003076929
20	0xbaa5ca3d	-0.0012648773
21	0x39d50d0d	0.0004063625
22	0xbc11ec0f	-0.008906378
23	0xbb0c99da	-0.0021454007
24	0x396e9ab8	0.00022755086
25	0xbb18abcb	-0.0023295756
26	0x39210c02	0.0001535863
27	0x3a8a3177	0.0010543306
28	0x3964d297	0.00021822225
29	0xba85b0fb	-0.0010199839
30	0x389feab8	7.6254306e-05
31	0x3baef861	0.0053396677
32	0xbb2d97aa	-0.0026488104
33	0xbb47cbd7	-0.0030486488
34	0xbac22673	-0.0014812484
35	0x3a8d5d3f	0.0010785236
36	0xba5ef1b2	-0.00085046433
37	0x3a50e51e	0.00079687114
38	0xbb02ec60	-0.0019977316
39	0x3c2aca7a	0.010424251
40	0xb9cd6f98	-0.0003918379
41	0x3ab912b1	0.001411995
42	0x3aa05998	0.0012233732
43	0xb9a9bf41	-0.00032376687
44	0xbac65c14	-0.0015133643
45	0x3a253cea	0.00063033274
46	0xbadd8084	-0.0016899263
47	0xbb35c358	-0.0027734842
48	0xb923ac8f	-0.00015609174
49	0x3b380354	0.0028078156
50	0xb9cfbdd6	-0.00039623555
51	0xbaf181b2	-0.0018425493
52	0x3add575c	0.0016886997
53	0x39b04ab7	0.00033625003
54	0x3a5d51a2	0.0008442645
55	0x3b14f107	0.0022726671
56	0xbb02fa28	-0.001998553
57	0x3b344298	0.0027505513
58	0x3b890b8e	0.0041822856
59	0xb8b424eb	-8.589945e-05
60	0x38dde9cb	0.000105816485
61	0x39ce52b4	0.00039353
62	0xbaac4e77	-0.0013145943
63	0x3b5c5d70	0.003362503

layer1.1.weight f4 [64]
0	0x3eb21e82	0.347889
1	0x3f12721a	0.57205355
2	0x3f17f583	0.59358996
3	0x3f2469f1	0.64224154
4	0x3f0cd330	0.55009747
5	0x3f2816f7	0.6566004
6	0x3f374dd7	0.7160315
7	0x3f349602	0.70541394
8	0x3efb7432	0.49112087
9	0x3e521bd8	0.20518434
10	0x3e7d6789	0.24746527
11	0x3eae71b5	0.34071127
12	0x3eaefdbe	0.34177965
13	0x3f0e1f7d	0.555168
14	0x3f2fcde1	0.6867352
15	0x3f1ae3e4	0.60503983
16	0x3e6523f2	0.22376993
17	0x3e938689	0.2881358
18	0x3ee29035	0.44250646
19	0x3f3eb02e	0.7448758
20	0x3f496716	0.7867292
21	0x3f21d071	0.6320868
22	0x3f24aa42	0.6432229
23	0x3ef530c6	0.47888774
24	0x3edafffe	0.42773432
25	0x3ee97a5e	0.4560117
26	0x3ead0995	0.33796373
27	0x3ebb4ef3	0.3658367
28	0x3ed2ab6a	0.41146404
29	0x3e97a6a9	0.2961934
30	0x3eaa11fc	0.33216846
31	0x3f540b08	0.8282933
32	0x3f34a902	0.70570385
33	0x3eb4b190	0.3529172
34	0x3f291907	0.66053814
35	0x3ea7533d	0.32680693
36	0x3f213b55	0.6298116
37	0x3f736ca1	0.9508763
38	0x3f0dfc84	0.55463433
39	0x3ef4fdd2	0.478499
40	0x3ece6135	0.40308538
41	0x3f31ef50	0.69505787
42	0x3e63c502	0.22243121
43	0x3f5194fa	0.81867945
44	0x3ea5c447	0.3237631
45	0x3e834308	0.25637078
46	0x3e94308f	0.28943297
47	0x3ed4bd5f	0.4155073
48	0x3f4364b8	0.7632556
49	0x3ef640e1	0.48096374
50	0x3f051d5d	0.5199793
51	0x3e826a24	0.25471604
52	0x3f1914c7	0.5979733
53	0x3dde282c	0.10847506
54	0x3e4117b5	0.188567
55	0x3f763212	0.9617015
56	0x3ed5f928	0.41791654
57	0x3f20d9a4	0.62832093
58	0x3ef79ecc	0.4836334
59	0x3f1870a9	0.59546906
60	0x3f0b0ce1	0.54316527
61	0x3e981441	0.29702953
62	0x3e386ffa	0.18011466
63	0x3e9de5fd	0.3083953

layer1.1.bias f4 [64]
0	0xbcd91200	-0.02649784
1	0x3be81862	0.007082985
2	0xba5ca22b	-0.0008416499
3	0xbbed5bef	-0.0072436254
4	0x3bb06a0b	0.005383735
5	0xbd037a1a	-0.032098867
6	0x3a847703	0.0010106269
7	0xbd8880ba	-0.06665178
8	0xbbf7b316	-0.0075591905
9	0x3baebecc	0.0053328034
10	0x3e0fdd1b	0.14049189
11	0xbecd4be5	-0.40096965
12	0xbb45b7a9	-0.0030169284
13	0xbc30885f	-0.010774701
14	0xbbb06016	-0.005382548
15	0x3da4a771	0.080397494
16	0x3c953383	0.01821304
17	0x3d1b778a	0.0379558
18	0xbd138c9d	-0.03602277
19	0x3b0e162e	0.00216807
20	0xbaaa465a	-0.0012990937
21	0xbce59a59	-0.0280277
22	0xbcb9d7d2	-0.022685919
23	0xbb387fce	-0.002815235
24	0xbe308b34	-0.17240602
25	0xbcbda837	-0.0231515
26	0xbcbdc14e	-0.023163464
27	0xbce601fc	-0.028077118
28	0xbc87bc46	-0.016569268
29	0x3c526ef2	0.012843834
30	0xbcd369f6	-0.025807362
31	0xbd8b7c8d	-0.068108656
32	0x3bb2d2da	0.0054572644
33	0xbbd648b7	-0.00653943
34	0xbcf8238d	-0.03029039
35	0x3b1ac988	0.0023618657
36	0xbbec7b5f	-0.0072168554
37	0xbd8251e7	-0.06363278
38	0xbcecfb70	-0.028928488
39	0xbd2c9d52	-0.04214222
40	0xbca704d4	-0.020388044
41	0xbd6af984	-0.057366863
42	0x3e05c41c	0.13063091
43	0xbbb2e702	-0.005459667
44	0xba6d338a	-0.00090485124
45	0xbc28b3c2	-0.010296764
46	0xbe16b718	-0.14718282
47	0xbb635edf	-0.0034693999
48	0xbc79d7fb	-0.015249248
49	0xbcd93486	-0.026514303
50	0x39a08969	0.00030619957
51	0x3a4f96db	0.00079189026
52	0xbc916a49	-0.017750876
53	0x3d465776	0.048423253
54	0x3dfcd11a	0.123445705
55	0xbd61d791	-0.05513722
56	0xba879501	-0.0010344089
57	0xbc9df182	-0.019280199
58	0xbc9a95f2	-0.018870328
59	0xbc48596e	-0.012228353
60	0xbc9e4104	-0.019318111
61	0x3b083f3b	0.0020789641
62	0xbe31c445	-0.17360027
63	0xbcffcd61	-0.031225862

layer1.1.running_mean f4 [64]
0	0xbb88c8f6	-0.004174347
1	0xbb7aad2b	-0.0038250189
2	0xb9a493c2	-0.00031390606
3	0x3b772aa5	0.0037714627
4	0xbbd05f7b	-0.0063590384
5	0x3c0ff274	0.008785833
6	0x3ad4eb79	0.0016244493
7	0xba32c320	-0.0006819237
8	0xba45727c	-0.0007532013
9	0x3b700915	0.0036626507
10	0xbc60d52a	-0.013722697
11	0xbb50370e	-0.0031771096
12	0xba86f92e	-0.001029765
13	0x3afb10ef	0.0019154827
14	0x3acd3ff6	0.0015659321
15	0x3c17810c	0.009247076
16	0x3c4ba316	0.012429019
17	0x3c61056f	0.013734206
18	0xbc62f626	-0.013852632
19	0x3bf42bd2	0.007451513
20	0xbad7fc26	-0.0016478344
21	0x3b7ec00c	0.0038871793
22	0xbc3ed4f2	-0.01164745
23	0xbb5585a4	-0.0032580877
24	0xbbf4a046	-0.007465395
25	0xbbde63d6	-0.0067868037
26	0xbbfdc2cf	-0.0077441703
27	0xbaebb51a	-0.001798305
28	0x3ad9430d	0.0016575769
29	0x3b66990f	0.0035186445
30	0xbb020614	-0.0019840049
31	0x3ba08884	0.0048990864
32	0x3beb4d91	0.0071808775
33	0x390f9441	0.00013692772
34	0xbc136ddc	-0.0089983605
35	0xb98823e7	-0.0002596669
36	0xbc74d4f8	-0.014943354
37	0xbb7e746e	-0.0038826722
38	0xbb28b78a	-0.0025744163
39	0x3c387d60	0.0112603605
40	0x3bdca2e2	0.0067332843
41	0x3c01f95d	0.007932988
42	0xbc20607a	-0.009788627
43	0x3a8f5d88	0.0010937909
44	0xbbc25429	-0.005930443
45	0xbb009f1f	-0.0019626094
46	0x3b4bc817	0.0031094605
47	0xbb8f20b9	-0.0043679145
48	0xbba35654	-0.0049846563
49	0x39a6d63a	0.00031821599
50	0x3aaade44	0.0013036211
51	0x3c3712ac	0.011173885
52	0xbc07f998	-0.008299254
53	0x3ae9e444	0.0017844518
54	0xbc2d4031	-0.010574386
55	0x3bff02a8	0.007782299
56	0xbaac48d2	-0.0013144261
57	0x3b3250c7	0.0027208792
58	0xbbd6ce1b	-0.0065553314
59	0x3b781357	0.0037853324
60	0x3ab87426	0.0014072701
61	0x3c0a373d	0.008436021
62	0x3b3f60c7	0.002920197
63	0x39b1fd85	0.00033948958

layer1.1.running_var f4 [64]
0	0x3d57340f	0.05253988
1	0x3e855baf	0.26046512
2	0x3de94ad1	0.11391223
3	0x3e92933b	0.28627953
4	0x3ea550c4	0.32288182
5	0x3b882747	0.004155073
6	0x3ed10d89	0.4083064
7	0x3c8bcebb	0.01706635
8	0x3d083219	0.0332509
9	0x3d5be338	0.05368349
10	0x3dafe327	0.08588248
11	0x3e367431	0.17817761
12	0x3e2373e2	0.15962175
13	0x3e45ef24	0.19329506
14	0x3e00b4f6	0.12569031
15	0x3cd05a36	0.02543364
16	0x3cee8d30	0.029120058
17	0x3d56c19a	0.052430727
18	0x3d2a5e55	0.04159387
19	0x3e47616a	0.19470754
20	0x3dcec690	0.100964665
21	0x3dd6150e	0.104532346
22	0x3c08d8a7	0.008352435
23	0x3e23a172	0.15979555
24	0x3e95a932	0.29230648
25	0x3d26fb1e	0.040766828
26	0x3cf0d5a9	0.029398756
27	0x3d9246ac	0.07142386
28	0x3d33dd0e	0.043911986
29	0x3d8fa4e7	0.070138745
30	0x3cefd147	0.029274596
31	0x3c8d9821	0.017284455
32	0x3d99bde6	0.075069234
33	0x3e5f60d0	0.21814275
34	0x3d909b30	0.0706085
35	0x3d8d8e89	0.06911952
36	0x3e4a7146	0.19769773
37	0x3d1a2a2c	0.037637874
38	0x3d491013	0.049087595
39	0x3c0d552e	0.008626265
40	0x3db59144	0.08865598
41	0x3cbcadb8	0.023032054
42	0x3da2febe	0.079587445
43	0x3f20b668	0.6277833
44	0x3d80c303	0.062871955
45	0x3d485450	0.04890853
46	0x3ccb87be	0.024845
47	0x3d831aa4	0.06401566
48	0x3e01c27d	0.12671848
49	0x3c02b10f	0.007976784
50	0x3d3b4ae5	0.045725722
51	0x3dad5f71	0.0846547
52	0x3e19c0b1	0.15014912
53	0x3e216324	0.15760475
54	0x3d61b8f5	0.05510803
55	0x3e388e67	0.18023072
56	0x3e4b20a4	0.1983667
57	0x3d2b3a40	0.0418036
58	0x3c6fce00	0.014636517
59	0x3d7ce254	0.06173928
60	0x3e2360ee	0.15954944
61	0x3d8ebd46	0.06969695
62	0x3dd98676	0.106213495
63	0x3d0ecaf9	0.03486154

layer2.0.weight f4 [128, 64, 5]
0	0xbc755af0	-0.0149752945
1	0x3c4968ee	0.012293084
2	0x3cd7adf3	0.026328063
3	0x3d40f202	0.047105797
4	0xbcbe2f4e	-0.023215916
5	0x3d16c1c4	0.036805883
6	0xbd570f63	-0.05250491
7	0xbd274900	-0.040841103
8	0xbd6c1a76	-0.057642423
9	0xbd895f43	-0.06707623
10	0x3db6e8bc	0.08931109
11	0x3de2d165	0.11075095
12	0x3d447394	0.047961786
13	0x3d445199	0.04792938
14	0xbd26c468	-0.04071465
15	0x3c2abee9	0.010421493
16	0xbd69a807	-0.05704501
17	0xbceeed35	-0.029165844
18	0xbde7b0a2	-0.11312987
19	0xbda455e2	-0.08024193
20	0x3d12710d	0.035752345
21	0xbd933d2b	-0.07189401
22	0xbcf2785e	-0.029598411
23	0xbd8f3551	-0.06992591
24	0xbe2c337d	-0.16816516
25	0x3dd66482	0.10468389
26	0x3d3e9ca1	0.04653609
27	0xbc4ce7e4	-0.012506459
28	0xbdca8696	-0.098889515
29	0xbdff4051	-0.12463439
30	0x3d66df50	0.05636531
31	0xbb019f86	-0.0019778921
32	0xbcc19289	-0.023629444
33	0xbd156758	-0.03647551
34	0xbd9f1d83	-0.07769301
35	0x3e27bf84	0.16381651
36	0x3dcdd249	0.10049874
37	0x3cf480a5	0.029846499
38	0x3d1365c7	0.035985734
39	0x3d6a534f	0.057208356
40	0xbcd4f1bf	-0.02599418
41	0xbd090f3a	-0.033461787
42	0xbd28b96e	-0.041192465
43	0xbe16f5f9	-0.14742269
44	0xbdcd2f10	-0.10018742
45	0xbd7c00c0	-0.061524153
46	0xbde7f962	-0.11326863
47	0xbe137a54	-0.14402133
48	0xbe6b1dcb	-0.22960584
49	0xbe3bc663	-0.18337397
50	0xbcc65d63	-0.024214452
51	0xbc1c29f3	-0.009531486
52	0xbc52434d	-0.012833429
53	0xbd1470d2	-0.036240406
54	0x3b8f0330	0.0043643937
55	0xbdc30035	-0.09521524
56	0xbcaadb82	-0.020856623
57	0x3ca91797	0.020641131
58	0xbcdbb994	-0.026821889
59	0xbdb21e44	-0.08697179
60	0x3d6e2e8a	0.05814985
61	0x3d21de5a	0.03951869
62	0xbd18a1de	-0.037263744
63	0xbc7a922e	-0.015293641
64	0xbdca8c76	-0.09890072
65	0x3d86b666	0.065777585
66	0x3d2f4218	0.04278764
67	0xbd2eb2fc	-0.04265116
68	0x3d35fa16	0.044427954
69	0xbd440946	-0.047860406
70	0x3c34c61f	0.011033564
71	0x3cedc4b8	0.029024467
72	0xbcee781c	-0.029110007
73	0xbd0ad725	-0.033896584
74	0xbcd6f47c	-0.026239626
75	0x3e1c44cb	0.15260617
76	0x3df9bdbf	0.12194394
77	0x3d826583	0.06367018
78	0x3cbf9b70	0.023389548
79	0xbc65e204	-0.014030937
80	0x3d1efcd0	0.03881532
81	0x3bd60b11	0.006532081
82	0xbd8dba6b	-0.06920322
83	0xbd188c30	-0.03724307
84	0xbce59571	-0.02802536
85	0x3dc8cc1d	0.098045565
86	0x3b3f8936	0.0029226071
87	0xbcd392b1	-0.025826784
88	0xbcbe5715	-0.023234883
89	0xbe266da8	-0.16252768
90	0xbc9a979a	-0.018871117
91	0xbd879903	-0.066209815
92	0xbe192685	-0.149561
93	0xbdd30b8e	-0.10304938
94	0xbe1c332c	-0.15253896
95	0x3d20c520	0.039250493
96	0x3c2e963e	0.010655938
97	0xbd6d6893	-0.057961058
98	0x3c9bd6a2	0.019023243
99	0xbd2b3fcb	-0.041808885
100	0xbcf593a1	-0.029977622
101	0xbcb363aa	-0.02189811
102	0xbd585f2f	-0.05282515
103	0xbd8d49a2	-0.0689881
104	0xbda4c213	-0.08044829
105	0xbbc160e6	-0.005901444
106	0xbc98bd24	-0.018644877
107	0xbd261f27	-0.040557053
108	0xbd294293	-0.041323256
109	0xbe0083c8	-0.1255027
110	0xbde4690c	-0.111528486
111	0xbd7cdf64	-0.06173648
112	0xbd8eb1a3	-0.06967475
113	0xbdcb62c4	-0.099309474
114	0xbdae3a85	-0.085072555
115	0x3e148524	0.14503914
116	0x3dbf6d3f	0.09347009
117	0x3d5bcbe9	0.05366126
118	0xbcaf7743	-0.021419173
119	0xbc8d6174	-0.017258383
120	0xbc3d52fb	-0.011555429
121	0xbda2d9b4	-0.0795168
122	0xbd323df8	-0.04351613
123	0xb52c22e0	-6.4125743e-07
124	0x3be1db1e	0.006892576
125	0x3de876a9	0.11350758
126	0x3e0b5655	0.13607152
127	0x3de451b7	0.11148398
128	0x3e19b579	0.15010633
129	0x3dc4b921	0.09605623
130	0x3e345f38	0.17614448
131	0x3e50f0fe	0.20404431
132	0x3e4ca59b	0.19985048
133	0x3e255407	0.16145335
134	0x3de4f6ee	0.111799106
135	0x3e236a53	0.15958528
136	0x3dfae72b	0.12251123
137	0x3dfc6479	0.12323851
138	0x3d84cebc	0.06484744
139	0x3d4c1590	0.04982525
140	0x3dee5111	0.11636556
141	0x3e0d8939	0.13821878
142	0x3de35b1d	0.11101363
143	0x3defe57b	0.11713692
144	0xbcc9712c	-0.024590097
145	0x3df320dc	0.11871502
146	0x3bdbefc6	0.006711933
147	0x3d001e4d	0.031278897
148	0xbd476470	-0.04867977
149	0xbd64e8fd	-0.055886257
150	0x3dea2310	0.11432469
151	0x3db88b0a	0.090108946
152	0x3e257de2	0.16161302
153	0x3dbb3b02	0.09142114
154	0x3db0b4b1	0.08628214
155	0x3d9362d8	0.07196587
156	0x3d2387df	0.0399245
157	0x3d5aed80	0.053449154
158	0x3d42b0bb	0.047531825
159	0x3c659a5e	0.014013855
160	0x3cf4806b	0.02984639
161	0xbd960414	-0.073249966
162	0xbdc39122	-0.09549166
163	0xbe011e65	-0.12609251
164	0xbe3f902c	-0.18707341
165	0x3cb1fa97	0.021725936
166	0xbbc1b2bb	-0.005911199
167	0x3c3bf866	0.011472797
168	0xbc670bde	-0.01410195
169	0xbdb98acd	-0.09059677
170	0xbc781747	-0.0151422685
171	0xbce2ee36	-0.027701478
172	0xbd877198	-0.06613463
173	0xbdcb1a99	-0.099171825
174	0xbe187f7a	-0.14892378
175	0x3d92f1a1	0.07174993
176	0x3dd6e6da	0.1049325
177	0x3d495bca	0.049159802
178	0x3d08ddcd	0.03341465
179	0xbbc5bc39	-0.006034401
180	0xbd908702	-0.07057001
181	0xbd9c0305	-0.076177634
182	0xbdbfe48c	-0.09369764
183	0x3ad483e0	0.0016213618
184	0xbdfe4a1a	-0.124164775
185	0x3dbfafd6	0.0935971
186	0x3ccd1b9e	0.025037583
187	0x3da9b771	0.08286942
188	0x3d120df6	0.035657845
189	0x3d1f578e	0.038901858
190	0x3d34e06c	0.044159338
191	0xbcb0479e	-0.021518525
192	0x3d195e91	0.0374437
193	0xbc9ad64c	-0.018901013
194	0xbc941136	-0.018074613
195	0x3e753324	0.2394529
196	0x3e314d76	0.17314705
197	0x3dc080f0	0.09399593
198	0x3c89b91d	0.016811902
199	0xbceba0bf	-0.028763173
200	0x3e4c026e	0.19922802
201	0x3e1e11b7	0.15436445
202	0x3d1e3c9e	0.038632028
203	0x3dba1da0	0.09087682
204	0xbc5ff75d	-0.013669816
205	0x3de35808	0.11100775
206	0x3d0b882f	0.03406542
207	0x3bede4e5	0.0072599524
208	0xbc83bfbf	-0.016082643
209	0xbd4d65ea	-0.05014602
210	0xbd951567	-0.07279473
211	0xbd6aa0a5	-0.05728211
212	0xbd2faa64	-0.042887107
213	0xbdf73c7c	-0.12072083
214	0xbdb37ddb	-0.087642394
215	0x3d00f376	0.031482182
216	0x3cc07e59	0.023497747
217	0xbbef2f16	-0.0072993143
218	0xbc9fc13d	-0.019501323
219	0xbdd03fea	-0.10168441
220	0xbd774786	-0.060370944
221	0xbb5257e3	-0.0032095842
222	0xbd3dcfb2	-0.04634065
223	0xbd8d340f	-0.06894695
224	0xbb1302bf	-0.0022432057
225	0x3e1a13db	0.15046637
226	0x3e2356a1	0.15951015
227	0x3d9b5b00	0.07585716
228	0x3cd3072e	0.02576026
229	0x3d087331	0.03331298
230	0xbd5feacc	-0.05466728
231	0xbd999473	-0.074990176
232	0xbd665e8d	-0.056242514
233	0xbe3b4206	-0.18286905
234	0xbe879790	-0.2648282
235	0x3dc8a164	0.09796408
236	0x3dcb20e8	0.09918386
237	0x3e07b0cd	0.13251038
238	0x3dc5ccdf	0.09658217
239	0x3d2f8ffa	0.042861916
240	0xbd09a5eb	-0.033605497
241	0x3c75bed0	0.0149991065
242	0x3b658163	0.0035019747
243	0xbcde4d5d	-0.027136499
244	0xbd4cb446	-0.04997661
245	0xbd572ed1	-0.052534882
246	0xbd234299	-0.039858434
247	0xbdc9a60d	-0.09846125
248	0xbdd7f2bb	-0.10544344
249	0xbe180661	-0.14846183
250	0xbd1a1ae9	-0.03762332
251	0xbaba71b6	-0.0014224562
252	0xbd80158f	-0.06254112
253	0xbd934901	-0.07191659
254	0xbdd77a68	-0.10521394
255	0xbd46d9b6	-0.04854747

layer2.0.bias f4 [128]
0	0x388c276c	6.683063e-05
1	0xb98dae63	-0.00027023544
2	0x393a7838	0.00017783127
3	0x358a7b73	1.031773e-06
4	0x391c3393	0.00014896532
5	0x396f1394	0.0002280011
6	0xb87bb9cb	-6.0016097e-05
7	0xb99c4835	-0.00029808437
8	0xb7e00fc3	-2.671022e-05
9	0x38887304	6.506409e-05
10	0x3868d013	5.5506895e-05
11	0xb8e0b4c6	-0.00010714824
12	0x3848a5e1	4.7838203e-05
13	0xb791ad65	-1.736609e-05
14	0x383778ed	4.374322e-05
15	0x382eba43	4.1658303e-05
16	0x39b96579	0.00035361553
17	0xb85de21a	-5.290108e-05
18	0x39714202	0.00023008141
19	0xb87c8359	-6.020381e-05
20	0x35bcb192	1.4058771e-06
21	0xb90c6758	-0.00013389939
22	0x38f8920d	0.000118527656
23	0xb903a72c	-0.0001255541
24	0xb7981f81	-1.8134482e-05
25	0x38d0eede	9.9627054e-05
26	0xb9a69cdb	-0.00031778854
27	0x38a6cb41	7.953356e-05
28	0x394e1286	0.00019652591
29	0xb6f8db0f	-7.4164777e-06
30	0x3841a4d1	4.6168283e-05
31	0xb9ba91a8	-0.00035585207
32	0x390daf6d	0.00013512159
33	0xb98f9b02	-0.00027390575
34	0xb8c2ada4	-9.282984e-05
35	0xb6aadb14	-5.091899e-06
36	0x3a238bbe	0.000623878
37	0xb78d07dd	-1.6812171e-05
38	0x39a3e556	0.0003126065
39	0xb89fe2b0	-7.623935e-05
40	0x38c8d281	9.5759526e-05
41	0xb7a8d8e1	-2.0128153e-05
42	0x384423f4	4.6763525e-05
43	0x3a2d2351	0.0006604689
44	0xb93ae794	-0.00017824612
45	0xb752c942	-1.2563834e-05
46	0x38409c56	4.5921966e-05
47	0xb84a9461	-4.829874e-05
48	0xb8f69128	-0.000117572316
49	0x36fb7fde	7.4952686e-06
50	0xba478ae4	-0.0007611944
51	0xb84ca035	-4.8786595e-05
52	0x38355d15	4.3240452e-05
53	0xb9598223	-0.00020743212
54	0xb8663da6	-5.4893688e-05
55	0x37cc4502	2.435083e-05
56	0x36737845	3.6279828e-06
57	0x33f0f50f	1.1220447e-07
58	0xb8d0c25d	-9.954416e-05
59	0xb735c99c	-1.08353815e-05
60	0xb89b91c6	-7.4181284e-05
61	0x397c79af	0.00024077923
62	0x1c16daa4	4.9913423e-22
63	0xb950920f	-0.00019890837
64	0xb717ac88	-9.040472e-06
65	0x392733c9	0.00015945653
66	0x34634b00	2.1168307e-07
67	0x36a42eea	4.8930424e-06
68	0xb920e068	-0.00015342387
69	0x3893efc4	7.054166e-05
70	0xb93a9ee5	-0.00017797535
71	0xb846fde1	-4.744332e-05
72	0x38c19547	9.230762e-05
73	0xb7c4e294	-2.347053e-05
74	0x3887aafc	6.46915e-05
75	0x2c8af2a8	3.949136e-12
76	0xb79de7c5	-1.8823785e-05
77	0xb858f1c4	-5.1723575e-05
78	0x377686b0	1.4694102e-05
79	0x3912d1ba	0.00014001774
80	0x38d29c68	0.00010042713
81	0x37f4c523	2.9178866e-05
82	0x39c07043	0.00036704735
83	0xb8d6b8e6	-0.00010238755
84	0xb56c9c81	-8.8144594e-07
85	0x38003efb	3.0576233e-05
86	0x3892456e	6.974755e-05
87	0xb79c7d97	-1.8655131e-05
88	0x37110c29	8.645505e-06
89	0x388069c4	6.123216e-05
90	0xb7fb5004	-2.9958792e-05
91	0x37ae6b2c	2.0792322e-05
92	0xba1e3bbd	-0.00060361234
93	0xb82035a4	-3.819693e-05
94	0xb931f6b8	-0.00016971945
95	0xb8ad46f6	-8.2625e-05
96	0xb83c8ccf	-4.495383e-05
97	0x37f8f324	2.9677125e-05
98	0xb9dd3e99	-0.00042199044
99	0xb781b3b3	-1.5461677e-05
100	0x1bcf9518	3.4341627e-22
101	0xb868678a	-5.540954e-05
102	0x38bdafa6	9.044939e-05
103	0xb8d7abb7	-0.00010283983
104	0x37dbf910	2.6222813e-05
105	0x37b27af0	2.12765e-05
106	0x3884b34c	6.327647e-05
107	0x372c4682	1.0268415e-05
108	0xb88c0a1c	-6.677603e-05
109	0x3a1b3a11	0.00059214333
110	0xb75b20d2	-1.3061059e-05
111	0x39bc86e9	0.0003595867
112	0x3a3a9f34	0.000711906
113	0x34b3d220	3.3494234e-07
114	0x39e798ab	0.000441735
115	0x3a3011c2	0.00067165133
116	0x37aed6aa	2.0842377e-05
117	0xb77c6d35	-1.5045797e-05
118	0x39057c94	0.00012730277
119	0xb96195e5	-0.00021513512
120	0xb8cb2ae8	-9.687786e-05
121	0x39bd4b0b	0.000361048
122	0xb95afcc5	-0.00020884264
123	0xb9780648	-0.00023653463
124	0xb8c720ab	-9.495144e-05
125	0xb8696eca	-5.565471e-05
126	0xb8078472	-3.2309857e-05
127	0x1f4b6501	4.307047e-20

layer2.1.weight f4 [128]
0	0x3ee2bc7a	0.4428442
1	0x3ebc2ccd	0.3675293
2	0x3f674cd3	0.903516
3	0x3d6946d5	0.056952316
4	0x3e865e8e	0.26244015
5	0x3f1accc9	0.6046873
6	0x3ea5e849	0.32403782
7	0x3f271abe	0.6527518
8	0x3ea2a521	0.31766608
9	0x3f317a93	0.6932766
10	0x3e9f6684	0.311329
11	0x3ef17112	0.47156578
12	0x3e99ec24	0.30062973
13	0x3e919d8c	0.2844051
14	0x3f02545a	0.5090996
15	0x3ee09052	0.43860108
16	0x3f2fa409	0.6860967
17	0x3f39a5ba	0.72518504
18	0x3ee39927	0.44452783
19	0x3e61a652	0.22036102
20	0x3e8f8060	0.2802763
21	0x3ee2fe10	0.4433446
22	0x3ebf087f	0.3731117
23	0x3f2a6b26	0.66569746
24	0x3ebe1b27	0.3713009
25	0x3f3ef046	0.7458538
26	0x3f0f35fd	0.55941755
27	0x3eca5c17	0.39523384
28	0x3f38c22c	0.7217128
29	0x3df2e5c5	0.11860231
30	0x3e31400d	0.1730959
31	0x3f0fb804	0.5614016
32	0x3e8a57d9	0.27020147
33	0x3f076041	0.52881247
34	0x3ed88244	0.42286885
35	0x3f270588	0.65242815
36	0x3f61e80f	0.8824472
37	0x3ed6012b	0.41797766
38	0x3f3ee11f	0.7456226
39	0x3e76cd69	0.24101795
40	0x3f0c670d	0.54844743
41	0x3f0a4297	0.5400786
42	0x3f4ad690	0.79233646
43	0x3f380b63	0.71892375
44	0x3ee4b5a5	0.44669834
45	0x3e894ad7	0.2681491
46	0x3e167fab	0.14697139
47	0x3e2f3f82	0.1711407
48	0x3eba945c	0.36441314
49	0x3ee62e77	0.44957325
50	0x3f5ca534	0.8618958
51	0x3f223daf	0.6337537
52	0x3f7d1d2e	0.9887265
53	0x3ec3ef40	0.3826847
54	0x3eeef815	0.46673647
55	0x3e5e8894	0.21731788
56	0x3ddcd318	0.107824504
57	0x3ca77586	0.020441782
58	0x3ec13005	0.37731948
59	0x3e0cf6a1	0.13765956
60	0x3e96d606	0.29460162
61	0x3f0bd0fe	0.5461577
62	0xbb5e768f	-0.0033945178
63	0x3f1a630a	0.6030737
64	0x3e5b9e28	0.2144705
65	0x3e8f6696	0.28007954
66	0x3e3ee005	0.18640144
67	0x3e166ae6	0.14689216
68	0x3e9f26f6	0.31084412
69	0x3eabe86a	0.33575755
70	0x3f625f87	0.88427013
71	0x3eec6fe1	0.46179107
72	0x3f44a75b	0.76817864
73	0x3f14dfc1	0.5815392
74	0x3f2b205a	0.6684624
75	0x39d8665e	0.00041275
76	0x3f0da320	0.55327034
77	0x3e91bf0c	0.2846607
78	0x3f127bda	0.5722023
79	0x3e67ad6b	0.22624747
80	0x3eb2b1cb	0.3490127
81	0x3eda483c	0.42633235
82	0x3f0ffc98	0.562448
83	0x3eb00d1c	0.34385002
84	0x3e54d143	0.20782952
85	0x3ec93fa8	0.39306378
86	0x3e663036	0.22479329
87	0x3f093fbd	0.5361288
88	0x3eb285b0	0.3486762
89	0x3e59c84c	0.21267813
90	0x3ee38f67	0.44445345
91	0x3f0cda40	0.55020523
92	0x3f76dfcb	0.9643523
93	0x3ebef118	0.37293315
94	0x3f3aefa5	0.7302192
95	0x3eb53cab	0.35397848
96	0x3f0f09f1	0.55874544
97	0x3e9a9393	0.30190715
98	0x3f3fcd36	0.749225
99	0x3efa95ea	0.489425
100	0xb7ab4df1	-2.0421083e-05
101	0x3e917488	0.2840922
102	0x3f2fe4ce	0.68708503
103	0x3ede8b80	0.43465805
104	0x3e583f66	0.21117935
105	0x3e531ed8	0.20617235
106	0x3e868cf2	0.26279408
107	0x3dd83b55	0.10558192
108	0x3ef6a913	0.48175868
109	0x3f230a29	0.6368738
110	0x3f6cce61	0.9250241
111	0x3f0035c1	0.5008202
112	0x3f7003d2	0.9375583
113	0x3ea70453	0.32620487
114	0x3f3ba3b5	0.7329667
115	0x3f2ba8bb	0.6705434
116	0xbe78d395	-0.24299462
117	0x3ef08c59	0.46982077
118	0x3f1f8d8b	0.6232535
119	0x3f14530d	0.57939225
120	0x3f1aa8b6	0.6041368
121	0x3f25923f	0.6467628
122	0x3f259918	0.6468673
123	0x3f17cc1d	0.5929583
124	0x3ef012fb	0.4688948
125	0x3e8a22b1	0.26979592
126	0x3ed0d975	0.40790907
127	0xbc52525a	-0.012837017

layer2.1.bias f4 [128]
0	0xbdc5f1a2	-0.096652284
1	0xbd66be79	-0.056333993
2	0xbd9d2781	-0.076735504
3	0xbd0455e6	-0.03230848
4	0xbe11f8f0	-0.14255118
5	0xbdf46d0c	-0.119348615
6	0xbd867013	-0.06564345
7	0xbe02da85	-0.12778671
8	0xbdde95fb	-0.1086845
9	0xbe176461	-0.14784385
10	0xbc9bfa1f	-0.019040165
11	0xbdbd2471	-0.09235466
12	0xbdbc5895	-0.09196583
13	0xbe83ca11	-0.25740102
14	0xbdaf6c67	-0.08565598
15	0xbe74cd56	-0.23906454
16	0xbe5b7742	-0.21432212
17	0xbe3906ab	-0.1806895
18	0xbdf860c8	-0.121278346
19	0xbd8e2488	-0.069405615
20	0xbdc9e695	-0.09858433
21	0xbdc44748	-0.09583908
22	0xbdbd157f	-0.09232616
23	0xbdc7be44	-0.09753087
24	0xbde5d2c4	-0.11221841
25	0xbe0e7f89	-0.13915838
26	0xbe06fc06	-0.13182077
27	0xbe00cc97	-0.12578045
28	0xbdfd9e66	-0.12383728
29	0xbdc1453a	-0.09437032
30	0xbd3ed702	-0.046591766
31	0xbddf3c94	-0.10900226
32	0xbd9d573a	-0.07682653
33	0xbe07e785	-0.13271911
34	0xbd46cc4c	-0.048534676
35	0xbee7969b	-0.4523209
36	0xbe3c9009	-0.1841432
37	0xbdd03d34	-0.101679236
38	0xbda6c4a6	-0.081429765
39	0xbdf0d278	-0.11758894
40	0xbe02da5d	-0.12778611
41	0xbde28d14	-0.11062065
42	0xbe1d424a	-0.15357319
43	0xbd389bee	-0.04507058
44	0xbc124921	-0.008928568
45	0xbe654014	-0.22387725
46	0xbce1caf7	-0.027562601
47	0xbd80d393	-0.062903546
48	0xbdc800ca	-0.097657755
49	0xbebf3db9	-0.37351778
50	0xbdf857c7	-0.12126117
51	0xbe205dde	-0.15660807
52	0xbec8b1ef	-0.39198253
53	0xbd92e4df	-0.0717256
54	0xbd81ab8c	-0.06331548
55	0xbd633024	-0.055465832
56	0xbd7ae450	-0.061252892
57	0xbdbc2209	-0.09186179
58	0xbde10068	-0.109864056
59	0xbd6cfda6	-0.057859086
60	0xbe37afa1	-0.17938091
61	0xbe4025c8	-0.18764412
62	0xbd60345f	-0.054737445
63	0xbe342163	-0.17590861
64	0xbd55d435	-0.05220433
65	0xbd22cb3c	-0.0397446
66	0xbd9dc829	-0.07704193
67	0xbd28281f	-0.041053887
68	0xbdca32bd	-0.09872959
69	0xbdf71c35	-0.12065927
70	0xbe40d61d	-0.18831678
71	0xbdd5d060	-0.10440135
72	0xbe312e9a	-0.17302933
73	0xbecf0021	-0.40429786
74	0xbee62455	-0.44949594
75	0xbd99da1a	-0.07512303
76	0xbe5f7632	-0.21822432
77	0xbe76fd76	-0.24120125
78	0xbd51c9af	-0.05121773
79	0xbcb2d6da	-0.021830965
80	0xbdada6f8	-0.084791124
81	0xbe0377a4	-0.12838608
82	0xbbecaa9f	-0.007222488
83	0xbdddbd2b	-0.108270966
84	0xbdbf759c	-0.09348604
85	0xbdbeb5af	-0.09311997
86	0xbe1e0334	-0.1543091
87	0xbe242653	-0.16030245
88	0xbdfaa3c4	-0.12238267
89	0xbd83ce2f	-0.06435811
90	0xbe1761de	-0.14783427
91	0xbd6c8287	-0.057741668
92	0xbe18b541	-0.14912893
93	0xbcc977ba	-0.024593223
94	0xbdff9e72	-0.12481393
95	0xbd72299c	-0.059121713
96	0xbdc365cd	-0.09540901
97	0xbde9bab0	-0.11412561
98	0xbe0c8644	-0.13723093
99	0xbe1b8d33	-0.15190582
100	0xb9aa597b	-0.00032491595
101	0xbd8bbf10	-0.06823552
102	0xbcb7cfe9	-0.022438006
103	0xbc94a9ac	-0.018147312
104	0xbd9862f0	-0.07440746
105	0xbd884c7c	-0.06655213
106	0xbdc4a274	-0.09601298
107	0xbe00edc5	-0.12590702
108	0xbda61cd0	-0.08110964
109	0xbdf4fb69	-0.11962015
110	0xbe2fea78	-0.17179286
111	0xbe03fb11	-0.12888743
112	0xbef5b210	-0.47987413
113	0xbdc912fd	-0.09818075
114	0xbde0b3fe	-0.10971831
115	0xbdd824d1	-0.10553897
116	0xbe386a8a	-0.18009391
117	0xbdf27ee9	-0.118406124
118	0xbe1bdbf8	-0.1522063
119	0xbe1ae7d9	-0.15127505
120	0xbe113aec	-0.14182633
121	0xbd96b3d8	-0.07358521
122	0xbd6e7028	-0.05821243
123	0xbe346cc4	-0.17619616
124	0xbe26d2df	-0.16291378
125	0xbd94142e	-0.072304115
126	0xbdf1918f	-0.11795341
127	0xbbd071a6	-0.006361204

layer2.1.running_mean f4 [128]
0	0xbe619149	-0.22028078
1	0xbf751868	-0.95740366
2	0xbfc6a111	-1.5517904
3	0xbf8fb2da	-1.1226456
4	0x3d40484a	0.04694394
5	0xbf659884	-0.89685845
6	0x3eae570d	0.3405079
7	0xbf9f1bbc	-1.2430339
8	0xbf96ed6a	-1.1791203
9	0x3e0d5b3e	0.13804337
10	0xbfb49f43	-1.4111103
11	0xbf767386	-0.96270025
12	0xbf3f01aa	-0.74611914
13	0x402625d8	2.5960598
14	0xbf0faa46	-0.5611919
15	0x4011892c	2.2739973
16	0xbef2ed3a	-0.47446615
17	0xbf4376eb	-0.7635333
18	0xbf290260	-0.6601925
19	0xbf73d7b4	-0.9525101
20	0xbeefb473	-0.4681736
21	0xbf8dd695	-1.108111
22	0xbee04c35	-0.4380814
23	0xbd86309a	-0.06552239
24	0x3f020658	0.5079093
25	0xbf8a2af0	-1.0794353
26	0xbf5d1fe2	-0.86376774
27	0xbf620bbb	-0.8829915
28	0x3d92ad4e	0.071619615
29	0x3ece5a94	0.4030348
30	0xbfa89104	-1.3169255
31	0xbf4bcdd3	-0.7961094
32	0xbe078069	-0.13232578
33	0xbeaab7ab	-0.33343253
34	0x3dae6f99	0.08517379
35	0x401a6c65	2.4128659
36	0xbf2bff24	-0.6718619
37	0xbf6a3056	-0.91480005
38	0x3f894ae9	1.0725986
39	0xbdaa639c	-0.0831978
40	0xbed2e4a8	-0.41190076
41	0x3f635e2f	0.8881559
42	0xbf02f6b6	-0.511577
43	0xbfb0cd48	-1.3812647
44	0x3f0f03cb	0.5586516
45	0x3fb7b3fc	1.4351802
46	0xbf8c219b	-1.0947756
47	0xbf1aa56b	-0.6040866
48	0xbf8135c9	-1.0094539
49	0x40143d92	2.316258
50	0xbf5545fd	-0.8330992
51	0xbf86fd6a	-1.0546086
52	0x3ffeac10	1.9896259
53	0xbf907dea	-1.1288426
54	0xbff281ec	-1.8945899
55	0x3dfcfdae	0.12353073
56	0xbeba500a	-0.3638919
57	0x3e7dc788	0.24783146
58	0xbefe4261	-0.49660018
59	0xbf5811c2	-0.84402096
60	0x3e440716	0.19143328
61	0xbf959078	-1.1684713
62	0x3741ea88	1.15583025e-05
63	0xbf925188	-1.1431131
64	0x3eca6e08	0.39537072
65	0x3f812e91	1.0092336
66	0xbfbef7fd	-1.491943
67	0x3e6caff1	0.23113991
68	0xbee09b7f	-0.43868634
69	0xbf258b88	-0.6466603
70	0xbf94f27e	-1.1636503
71	0xbf4febb4	-0.8121903
72	0xbefb6c8e	-0.49106258
73	0x402238a4	2.534707
74	0x40232198	2.5489254
75	0x3edd6aa2	0.43245417
76	0xbf0b6af7	-0.5446009
77	0x3ffb21e3	1.9619716
78	0xbe5917bc	-0.2120046
79	0xbfaab57e	-1.3336637
80	0xbe4cfef1	-0.20019127
81	0xbf66b9d7	-0.9012732
82	0x3f5dab58	0.86589575
83	0xbf64eb4c	-0.89421535
84	0x3fcbec68	1.593152
85	0xbf1d8e2e	-0.61545074
86	0x3fc0aa9f	1.505207
87	0xbfaebc46	-1.3651206
88	0xbf075fef	-0.5288076
89	0x3b92ed95	0.0044838884
90	0xbe305472	-0.17219713
91	0x3f4e9bc6	0.8070644
92	0xbf499df3	-0.78756636
93	0x3f0c97e4	0.54919267
94	0xbf38c335	-0.7217286
95	0xbf8814fd	-1.0631405
96	0xbfe5c559	-1.7950851
97	0xbf6f5aff	-0.93498224
98	0xbea422a0	-0.32057667
99	0x3fa6ba43	1.3025593
100	0xa5f35a99	-4.2215172e-16
101	0xbed6960a	-0.41911346
102	0x3e2c66ba	0.16836062
103	0xbf9cdb4c	-1.2254424
104	0xbea593ca	-0.32339317
105	0xbfa658eb	-1.2995886
106	0xbfd209af	-1.6409205
107	0x3ff4aaac	1.9114585
108	0x3f8b60b6	1.0888889
109	0xbfac6318	-1.3467741
110	0x3d430908	0.047616035
111	0xbf34e264	-0.70657945
112	0x3e528cdb	0.20561545
113	0xbf882d8a	-1.0638897
114	0xbf9a596a	-1.2058537
115	0xbc741c42	-0.014899315
116	0xbf9034e7	-1.1266145
117	0xbf352725	-0.70762855
118	0xbe4545c0	-0.19264889
119	0xbf1b14d5	-0.6057866
120	0xbf3d23fc	-0.7388303
121	0xbf8ad839	-1.0847236
122	0xbfbcad2d	-1.4740349
123	0xbf38a236	-0.72122514
124	0xbf4505e9	-0.76962143
125	0x3f0d8804	0.5528567
126	0xbefd7ba8	-0.49508405
127	0x32121897	8.50391e-09

layer2.1.running_var f4 [128]
0	0x4010b28f	2.2608984
1	0x405a5cec	3.4119215
2	0x41296c60	10.588959
3	0x405851d7	3.379995
4	0x40711874	3.7671175
5	0x4099d10c	4.8067684
6	0x4081652d	4.0436006
7	0x40c3de51	6.120888
8	0x408cf119	4.404431
9	0x403acd2a	2.9187722
10	0x411492f1	9.285874
11	0x40807abb	4.0149817
12	0x402baf2e	2.6825671
13	0x4195b388	18.712662
14	0x402e4db7	2.7234933
15	0x4106c04e	8.421949
16	0x400d1cb3	2.2048767
17	0x4054805b	3.3203342
18	0x4068232f	3.6271474
19	0x409e16e7	4.9402957
20	0x4083d59b	4.119825
21	0x409bb854	4.866251
22	0x4000036d	2.000209
23	0x40130c22	2.2976155
24	0x4009fdef	2.1561239
25	0x40a7a260	5.238571
26	0x405264d5	3.2874043
27	0x406e4702	3.723084
28	0x406fdb92	3.7477765
29	0x402dcce3	2.7156303
30	0x405e2b22	3.4713826
31	0x40145a3d	2.3180077
32	0x4052ae28	3.2918797
33	0x401ce8c9	2.451708
34	0x403543e0	2.8322678
35	0x419104fe	18.127438
36	0x402f0fba	2.7353349
37	0x4094e8ec	4.653433
38	0x406dc9db	3.7154453
39	0x40205f38	2.5058117
40	0x3fef8c9c	1.8714786
41	0x40303742	2.7533727
42	0x4032f5e5	2.7962582
43	0x410c35b4	8.763111
44	0x403dc518	2.9651546
45	0x4109c03a	8.60943
46	0x404a1498	3.157507
47	0x4002bae0	2.042656
48	0x40429c1c	3.0407782
49	0x417ff829	15.998086
50	0x4050767c	3.2572317
51	0x4094122d	4.6272187
52	0x40d5f17a	6.685727
53	0x40430ce1	3.047661
54	0x4139d757	11.615073
55	0x3ff284b4	1.8946748
56	0x403dbb1f	2.964546
57	0x3e9f4152	0.31104523
58	0x4023ffbd	2.562484
59	0x40727ad7	3.7887475
60	0x401f49a7	2.4888704
61	0x408336ed	4.100455
62	0x3073018e	8.8405094e-10
63	0x40b30276	5.5940504
64	0x3ffcbb19	1.9744598
65	0x4063d3e8	3.5598087
66	0x40c6168e	6.1902533
67	0x404c823e	3.1954494
68	0x403af415	2.9211476
69	0x4088087d	4.251036
70	0x40927f48	4.5780373
71	0x4057742f	3.3664663
72	0x4055653f	3.3343046
73	0x419f9742	19.948856
74	0x4195f8a5	18.746408
75	0x3f147791	0.57994944
76	0x409e7284	4.951479
77	0x4146d871	12.427842
78	0x404f1263	3.2354972
79	0x41062766	8.384619
80	0x404c158f	3.1888158
81	0x404bf1c2	3.1866307
82	0x40647524	3.5696497
83	0x4050b03d	3.2607567
84	0x40bc8f7d	5.8925157
85	0x402995a4	2.6497583
86	0x407d7fc9	3.9609244
87	0x40e9c5e1	7.305405
88	0x40321bbd	2.782943
89	0x3fc351c4	1.5259328
90	0x40370268	2.8595219
91	0x402eea5b	2.733054
92	0x40312919	2.7681334
93	0x40bc8867	5.8916507
94	0x409d1005	4.9082055
95	0x40544bbe	3.317123
96	0x40c9b691	6.303536
97	0x400ef0c1	2.2334445
98	0x4011d517	2.278631
99	0x40d1ac0f	6.5522532
100	0x0ddbcfd2	1.3546948e-30
101	0x40081b44	2.1266642
102	0x4026597f	2.5992124
103	0x41045223	8.270053
104	0x400396f3	2.0560882
105	0x409a9dc8	4.8317604
106	0x40a6b1b3	5.209192
107	0x412519d9	10.31881
108	0x40867006	4.2011747
109	0x406f6be3	3.74096
110	0x4003c4f7	2.0588968
111	0x407a2ff9	3.909178
112	0x403e8b43	2.9772499
113	0x408dde47	4.4333835
114	0x407e250b	3.971011
115	0x403a299d	2.9087899
116	0x40d4d2ab	6.6507163
117	0x40b9f8e1	5.8116307
118	0x3fff85ea	1.9962742
119	0x400a8e4b	2.1649349
120	0x408cad93	4.3961883
121	0x40c9697c	6.2941265
122	0x4117f77c	9.497921
123	0x401f6298	2.4903927
124	0x409682bf	4.70346
125	0x408f558c	4.4791927
126	0x403f79a5	2.9917996
127	0x2725c686	2.300597e-15

linear1.weight f4 [4, 16000]
0	0xbceae8eb	-0.028675517
1	0xbda8f73e	-0.08250283
2	0xbd697fa5	-0.057006497
3	0xbd2fedcb	-0.042951386
4	0xbd7f6a82	-0.062357433
5	0xbe09efe9	-0.13470425
6	0xbdd92c46	-0.106041476
7	0xbdac9f57	-0.08428829
8	0xbdf521a2	-0.119693056
9	0xbe150118	-0.14551198
10	0xbe08757c	-0.13326067
11	0xbe09d6e3	-0.13460879
12	0xbe05527a	-0.13019744
13	0xbe13a22a	-0.1441733
14	0xbe32c5ec	-0.17458314
15	0xbd91f9ff	-0.07127761
16	0xbe0c50bf	-0.13702677
17	0xbe2ae7b3	-0.16689949
18	0xbdc0c9fc	-0.094135255
19	0xbe0e84c0	-0.13917828
20	0xbdf5e760	-0.12007022
21	0xbe270d9b	-0.16313784
22	0xbe3d9372	-0.18513277
23	0xbdf1d6c4	-0.118085414
24	0xbdd3cd15	-0.10341851
25	0xbd70eba7	-0.058818486
26	0xbe07c687	-0.13259326
27	0xbdbe7665	-0.09299926
28	0xbdb9a1e8	-0.09064084
29	0xbd7e98e5	-0.06215753
30	0xbe0026e9	-0.12514843
31	0xbd66cd41	-0.05634809
32	0xbd1588c7	-0.036507394
33	0xbe06916c	-0.13141412
34	0xbdf5894b	-0.11989077
35	0xbdd3a0d3	-0.10333409
36	0xbdcc4566	-0.09974174
37	0xbda66949	-0.0812555
38	0xbdd534c9	-0.104104586
39	0xbde247b0	-0.110488296
40	0xbd553cef	-0.052060064
41	0xbde9a1cd	-0.11407814
42	0xbe0faa18	-0.1402973
43	0xbdec9266	-0.11551361
44	0xbdb42661	-0.08796383
45	0xbd86169a	-0.0654728
46	0xbdb8ff90	-0.0903312
47	0xbe0bd0f3	-0.13653927
48	0xbdd9b3ac	-0.10629973
49	0xbe368750	-0.17825055
50	0xbe4c8f10	-0.19976449
51	0xbe25bd70	-0.16185546
52	0xbde0d066	-0.10977249
53	0xbdf47bc8	-0.11937672
54	0xbe12902b	-0.14312808
55	0xbe3b22b6	-0.1827496
56	0xbe0d93d7	-0.13825928
57	0xbda92c18	-0.08260363
58	0xbdebf1f2	-0.11520757
59	0xbe2ae43a	-0.16688624
60	0xbe034f2d	-0.12823172
61	0xbdbcb5ff	-0.092144005
62	0xbdd09f8f	-0.101866834
63	0xbdb27df0	-0.08715427
64	0xbd9d2b08	-0.07674223
65	0xbde1dd47	-0.110285334
66	0xbdadd94f	-0.08488714
67	0xbdf23331	-0.1182617
68	0xbe1edfd8	-0.15515077
69	0xbdc4342f	-0.09580266
70	0xbdad5763	-0.08463933
71	0xbe1b1220	-0.15143633
72	0xbdf21100	-0.11819649
73	0xbd782cb4	-0.060589507
74	0xbda3fe2e	-0.08007465
75	0xbdc94dc0	-0.09829283
76	0xbdca685d	-0.09883187
77	0xbd3cffcf	-0.046142396
78	0xbd65d188	-0.056108028
79	0xbd5fdc63	-0.054653537
80	0xbdfc6a3b	-0.12324949
81	0xbd68d41f	-0.05684292
82	0xbd70a231	-0.058748428
83	0xbda710bd	-0.081574894
84	0xbdf65a75	-0.12028972
85	0xbd90efd7	-0.07076996
86	0xbd3ce43d	-0.046116102
87	0xbe169de7	-0.14708672
88	0xbdf8dc94	-0.12151447
89	0xbdc7db17	-0.09758585
90	0xbd7dc1cb	-0.061952394
91	0xbdd2d16c	-0.1029385
92	0xbde6d33a	-0.11270757
93	0xbdb23d91	-0.08703149
94	0xbd610eeb	-0.054945868
95	0xbdcaa82e	-0.09895359
96	0xbe19c194	-0.1501525
97	0xbdc4fa82	-0.09618093
98	0xbcbb4a01	-0.022862436
99	0xbd8bcfe7	-0.068267636
100	0xbe114646	-0.14186963
101	0xbdfe0fba	-0.12405343
102	0xbd9d9bd0	-0.076957345
103	0xbde1ec80	-0.11031437
104	0xbe0c5436	-0.13703999
105	0xbe2b2795	-0.16714318
106	0xbe04cb1c	-0.12968105
107	0xbda18f06	-0.07888608
108	0xbdf36844	-0.118851215
109	0xbda54a77	-0.08070844
110	0xbdcbb733	-0.09947052
111	0xbd931e6f	-0.07183539
112	0xbdd83895	-0.10557667
113	0xbe0f973b	-0.14022534
114	0xbdf3198b	-0.11870106
115	0xbd576e6a	-0.052595533
116	0xbde07c67	-0.10961228
117	0xbe065f28	-0.13122237
118	0xbdeec044	-0.116577655
119	0xbdb75ce3	-0.089532636
120	0xbdd47a87	-0.10374933
121	0xbe065819	-0.13119544
122	0xbe15fe2c	-0.1464774
123	0xbdbbdded	-0.09173188
124	0xbe7e38c2	-0.24826339
125	0x3babafb0	0.0052394494
126	0xbcb50165	-0.022095392
127	0xbd2ca13c	-0.042145953
128	0xbd09d472	-0.03364987
129	0xbd963b85	-0.07335571
130	0xbd207d87	-0.039182212
131	0xbce02240	-0.027360082
132	0xbda5b0c1	-0.08090354
133	0xbd929250	-0.07156813
134	0xbd32469b	-0.043524366
135	0xbcd2f162	-0.025749866
136	0xbc910e06	-0.017706882
137	0x3c9c4c55	0.019079367
138	0x3c2ee7a1	0.010675342
139	0xbc33671c	-0.010949876
140	0xbcc831b2	-0.02443776
141	0xbab66655	-0.0013915995
142	0xbd472c38	-0.048626155
143	0xbd2d3e0c	-0.0422955
144	0xbd6966f7	-0.05698296
145	0xbd074ec8	-0.033034116
146	0x3d505c00	0.050868988
147	0xbc7d8636	-0.015473893
148	0xbc37cd7b	-0.011218424
149	0xbd6c886b	-0.057747286
150	0xbb90143a	-0.0043969424
151	0xbcbe0a0f	-0.023198156
152	0xbb048b34	-0.0020224573
153	0xbbcba052	-0.00621418
154	0xbd1be903	-0.038064014
155	0xbd8bb2bb	-0.068211995
156	0xbd72baa1	-0.059260014
157	0xbd51da2d	-0.05123346
158	0xbc8ab340	-0.016931176
159	0xbd034d35	-0.032056052
160	0xbd1533ca	-0.036426343
161	0xbcd496df	-0.025950847
162	0xbd47bbbb	-0.048763018
163	0xbd582c77	-0.05277678
164	0xb9efae85	-0.0004571566
165	0x3c825fbd	0.015914792
166	0xbcb53c12	-0.02212337
167	0xbd34112a	-0.04396168
168	0xbd635757	-0.055503216
169	0xbd6b65de	-0.057470195
170	0xbd89758c	-0.067118734
171	0xbd0b3a4c	-0.033991143
172	0xbd3acbea	-0.045604624
173	0xbcb52563	-0.022112554
174	0xbd2b3595	-0.041799147
175	0xbd4b61ac	-0.049653694
176	0xbd5ec2be	-0.05438494
177	0xbcdb8e15	-0.026801148
178	0xbcd38243	-0.02581895
179	0xbc28fc42	-0.010314049
180	0xbc755d84	-0.014975909
181	0xbb4c4ee0	-0.0031174943
182	0xbcd22567	-0.0256526
183	0xbd29f22f	-0.04149073
184	0xbcaefaea	-0.02135988
185	0xbd0457d2	-0.032310314
186	0xbb38d54e	-0.0028203311
187	0xbd2e0402	-0.04248429
188	0xbce8f7d6	-0.02843849
189	0x3c2503ab	0.010071675
190	0xbd659367	-0.056048777
191	0xbd0a6002	-0.033782966
192	0x3bdf66d3	0.0068176775
193	0xbc84e1f9	-0.016221033
194	0xbcb48dac	-0.02204021
195	0xbb4c6249	-0.0031186512
196	0xbd8a6bd4	-0.06758848
197	0xbd23ce0b	-0.03999142
198	0xbcb55702	-0.022136215
199	0xbc51d8e4	-0.012808058
200	0xbd3bc4d4	-0.045842007
201	0xbd13a11a	-0.03604231
202	0xbd8eb86f	-0.06968772
203	0xbd3a87d3	-0.04553969
204	0xbd31a3e5	-0.043369193
205	0xbd2b06bc	-0.04175447
206	0xbd2143f6	-0.039371453
207	0xbc662217	-0.014046214
208	0xbcc42db4	-0.023947574
209	0x3c8c079c	0.017093472
210	0xbcb83b65	-0.022489259
211	0xbbd0e487	-0.006374899
212	0x3bf9135b	0.0076011843
213	0xbd50c879	-0.050972436
214	0xbd107ec4	-0.035277143
215	0xbc309545	-0.010777776
216	0xbd7c9a29	-0.061670456
217	0xbd9581b5	-0.0730013
218	0xbd88e6c4	-0.0668464
219	0xbdb8af8b	-0.09017857
220	0xbcdf2dbb	-0.027243486
221	0xbd542d7c	-0.05180119
222	0xbd5d65d0	-0.054052174
223	0xbcaff5af	-0.021479456
224	0xbceef7a0	-0.029170811
225	0x3be5eedc	0.0070169996
226	0x3c4a5dd9	0.012351477
227	0x3b4d5e00	0.0031336546
228	0x3bcdedc6	0.0062844483
229	0xbc4753ca	-0.012165973
230	0xbd38cc3f	-0.04511666
231	0xbd641362	-0.055682547
232	0x3a189e87	0.0005821962
233	0xbb908936	-0.004410888
234	0xbc2f6125	-0.010704313
235	0xbd6ac62c	-0.057317898
236	0xbd50a2e0	-0.05093658
237	0xbd6169d9	-0.055032585
238	0xbc40cbd6	-0.011767348
239	0xbd8fdf1c	-0.070249766
240	0xbd5ad992	-0.053430147
241	0xbd4e0f44	-0.050307527
242	0xbb91e463	-0.0044522746
243	0xbc9535f4	-0.018214203
244	0xbc9d1788	-0.01917626
245	0x3c87c98a	0.016575594
246	0xbcf4cf94	-0.029884137
247	0xbceb8950	-0.028752
248	0x3addd6ad	0.001692494
249	0x3d040f4d	0.032241154
250	0x3d127322	0.03575433
251	0x3d4c5946	0.049889825
252	0x3d41214e	0.047150902
253	0x3bd10bd8	0.0063795857
254	0xbb9bcccf	-0.0047546397
255	0x3d462f77	0.04838511

linear1.bias f4 [4]
0	0xbd639d68	-0.055570036
1	0xbd630f88	-0.055434734
2	0x3d812d65	0.063074864
3	0x3cb1e632	0.021716211
